…
              (parametrizations): ModuleDict(
                (weight): ParametrizationList(
                  (0): _WeightNorm()
                )
              )
            )
            (1): SiLU()
          )
          (2): Sequential(
            (0): ParametrizedConv1d(
              896, 896, kernel_size=(3,), stride=(1,), padding=(8,), dilation=(4,)
              (parametrizations): ModuleDict(
                (weight): ParametrizationList(
                  (0): _WeightNorm()
                )
              )
            )
            (1): SiLU()
          )
        )
        (downsample): Conv1d(896, 896, kernel_size=(3,), stride=(8,), padding=(2,))
      )
    )
    (final_conv): Conv1d(896, 896, kernel_size=(3,), stride=(2,), padding=(2,))
  )
  (encoder_transformer): Transformer(
    (layers): ModuleList(
      (0-21): 22 x TransformerBlock(
        (attention): Attention(
          (q_proj): Linear(in_features=1028, out_features=1024, bias=False)
          (k_proj): Linear(in_features=1028, out_features=1024, bias=False)
          (v_proj): Linear(in_features=1028, out_features=1024, bias=False)
          (out_proj): Linear(in_features=1024, out_features=1028, bias=False)
          (dropout): Dropout(p=0.1, inplace=False)
        )
        (feed_forward): MultiLayerPerception(
          (linear1): Linear(in_features=1028, out_features=4112, bias=False)
          (linear2): Linear(in_features=4112, out_features=1028, bias=False)
          (dropout): Dropout(p=0.1, inplace=False)
        )
        (attention_norm): RMSNorm()
        (mlp_norm): RMSNorm()
      )
    )
    (norm): RMSNorm()
  )
  (pre_vq_proj): Linear(in_features=896, out_features=1028, bias=True)
  (semantic_rvq): ResidualVectorQuantizer(
    (quantizers): ModuleList(
      (0-1): 2 x VectorQuantizer(
        (codebook): Embedding(2048, 1028)
      )
    )
  )
  (acoustic_rvq): ResidualVectorQuantizer(
    (quantizers): ModuleList(
      (0-7): 8 x VectorQuantizer(
        (codebook): Embedding(2048, 1028)
      )
    )
  )
  (post_vq_proj): Linear(in_features=6, out_features=896, bias=True)
  (decoder_transformer): Transformer(
    (layers): ModuleList(
      (0-3): 4 x TransformerBlock(
        (attention): Attention(
          (q_proj): Linear(in_features=256, out_features=256, bias=False)
          (k_proj): Linear(in_features=256, out_features=256, bias=False)
          (v_proj): Linear(in_features=256, out_features=256, bias=False)
          (out_proj): Linear(in_features=256, out_features=256, bias=False)
          (dropout): Dropout(p=0.1, inplace=False)
        )
        (feed_forward): MultiLayerPerception(
          (linear1): Linear(in_features=256, out_features=1024, bias=False)
          (linear2): Linear(in_features=1024, out_features=256, bias=False)
          (dropout): Dropout(p=0.1, inplace=False)
        )
        (attention_norm): RMSNorm()
        (mlp_norm): RMSNorm()
      )
    )
    (norm): RMSNorm()
  )
  (decoder): SeaNetDecoder(
    (initial_upsample): ConvTranspose1d(896, 896, kernel_size=(3,), stride=(2,), padding=(2,), output_padding=(1,))
    (conv_blocks): ModuleList(
      (0): TransposedConvBlock(
        (upsample): ConvTranspose1d(896, 896, kernel_size=(3,), stride=(8,), padding=(2,), output_padding=(7,))
        (layers): ModuleList(
          (0): Sequential(
            (0): ParametrizedConv1d(
              896, 896, kernel_size=(3,), stride=(1,), padding=(8,), dilation=(4,)
              (parametrizations): ModuleDict(
                (weight): ParametrizationList(
                  (0): _WeightNorm()
                )
…
